checkpoints_torch/ddqn_weights_latest.pth (torch, 29797 bytes, 6 tensors)

fc1.weight f4 [64, 37]
000000 b3 b6 e7 3e fa 06 e2 be 3f cc fc be b3 8e f4 be
       0.45256576 -0.44145948 -0.49374577 -0.4776512
000010 19 37 28 c0 b2 b9 af bc 9c 45 f8 3c 9a f0 85 3d
       -2.628363 -0.021450851 0.03030663 0.06540032
000020 99 32 1e bd fc cc bd 3c 68 b1 09 3d 6c de 93 3d
       -0.038622472 0.023169033 0.033616453 0.07220158
000030 78 33 8b 3c c8 27 43 3d e0 3e 39 bd 61 e2 4a 3d
       0.016992316 0.04764536 -0.045225978 0.049532298
000040 49 b6 ad 3d f6 5e 43 3d 6b c6 d7 3d ea 2d ce 3d
       0.08482034 0.047697984 0.10535892 0.10067351
000050 df cc 17 bd b3 0e 68 bd 55 e1 20 3d 16 14 40 3d
       -0.037060615 -0.056654643 0.039277393 0.046894155
000060 a9 b6 83 bd d6 18 d1 bc 77 24 3f ba 3f e8 d0 3c
       -0.06431324 -0.025524538 -0.00072915055 0.025501369
000070 d6 d1 a9 3d 48 f9 11 3e f1 59 a9 bd 26 e9 c6 bc
       0.08291976 0.1425525 -0.08269108 -0.024281096
000080 fc dc c9 3b 9d 6f d0 3d 1c 4f 14 3e 71 f3 42 bc
       0.0061603766 0.101775385 0.14483303 -0.011898861
000090 f6 3d 6c ba 7a 9a c7 3d 44 72 01 bf df 06 8b be
       -0.00090119184 0.09746261 -0.5056498 -0.2715368
0000a0 95 ea 47 bf 4f 60 18 bf d9 7d ca 3d 30 9a 43 bf
       -0.7809232 -0.59521955 0.09887285 -0.76407146
0000b0 26 58 0d be 5c 2f d7 3b 73 96 8d 3e d8 2a 07 be
       -0.13803157 0.006566925 0.27653846 -0.13199937
0000c0 13 6f fa be 33 22 cb 3c fe c8 15 be fe bf f9 be
       -0.48912868 0.02479658 -0.14627454 -0.4877929
0000d0 d0 f5 2a 3e a2 75 0b bf a7 1e 23 3e 34 61 40 bf
       0.16695333 -0.5447637 0.15929662 -0.7514832
0000e0 ae 09 e4 be 7c 32 2c be 2d 86 a8 bd 37 db 2a 3e
       -0.44538635 -0.16816133 -0.08228717 0.16685186
0000f0 61 7a 04 bf 4f 22 fb 3d 5a 54 60 3e 72 fe 19 bd
       -0.51749235 0.12262403 0.21907178 -0.037596174
000100 a1 e6 0e bf 0a ad eb be 24 82 c9 3c 64 7e 95 be
       -0.5582066 -0.46030456 0.024598189 -0.2919799
000110 b9 64 33 bf ff 1c a1 3d 0a ec e3 be 9a 8c 8c 3e
       -0.70075566 0.07866859 -0.4451602 0.2745102
000120 58 56 07 be 45 64 94 bd dd 92 0a 3e 4b b6 5f be
       -0.13216531 -0.072456874 0.13532586 -0.21846883
000130 50 b4 8f be a3 62 a8 be 9c 6d b8 be 9e 44 14 bf
       -0.28067255 -0.32887754 -0.36021125 -0.579172
000140 26 f5 4e bd 4a 01 58 3e ae 42 d3 3d f7 4b f6 3e
       -0.05052676 0.21094242 0.103154525 0.48104832
000150 4a e5 05 be 78 fb ee bd 5a f1 d1 3c 0b a9 70 be
       -0.13075748 -0.116690576 0.02562778 -0.23501985
000160 7e c4 30 3e 4c 2b 3a be 83 06 2a be 16 05 fd bd
       0.17262456 -0.18180579 -0.16604047 -0.12354486
000170 29 86 40 bc 56 63 4a bd 40 2e 98 3d fe 76 14 be
       -0.011750736 -0.04941114 0.074306965 -0.14498517
000180 91 16 55 be d3 14 1e be e0 e9 79 bf a1 03 60 be
       -0.2080939 -0.15437631 -0.9762249 -0.21876384
000190 55 39 51 be 2a 9a f9 bd 2b 79 63 bd 4d 2b 17 bc
       -0.20432027 -0.121876076 -0.055535477 -0.009226632
0001a0 ca 2f 13 3e 9a 47 e1 bd d4 a8 43 be 5b 7d 7f be
       0.14373699 -0.10999985 -0.19107372 -0.24950163
0001b0 36 c7 94 be 71 fd cd 3d de 13 c7 3d 76 2a 7c 3d
       -0.29058236 0.10058106 0.09720586 0.06156393
0001c0 af d5 3b be 90 26 dc bd f3 b6 8d 3d 94 1e d5 3d
       -0.18343233 -0.10749543 0.069196604 0.10406223
0001d0 8a c3 92 be 2b 0d 03 3e 1e 13 8a 3e 17 21 78 3e
       -0.2866481 0.12797992 0.2696771 0.24231373
0001e0 2b ad 90 3c 98 30 03 3d 7e 32 2a bd bc 73 3b 3e
       0.017660698 0.032028764 -0.04155206 0.18305868
0001f0 8e a9 19 3e 70 ce 70 3e ef e3 0d 3e d5 95 82 bd
       0.15006086 0.2351625 0.13856481 -0.063762344
000200 7b 42 e6 bd 2c 24 da bd 8e 4d 0d be 1d 1f 25 bd
       -0.11243149 -0.106514305 -0.13799116 -0.040312875
000210 1f 5d ba 3d 9d bd 37 bc 83 21 12 be 5a 01 83 3d
       0.09099793 -0.011214641 -0.14270596 0.06396742
000220 ed a3 28 3e d3 07 ff 3d 2b 46 3e bd 9c c0 1f be
       0.16468783 0.12452664 -0.046453636 -0.15600818
000230 69 94 cb be 05 b0 50 3d f2 9f 7d 3d 22 77 35 3e
       -0.39761665 0.050949115 0.061920114 0.17721227
000240 89 71 05 bc a5 b0 0a bd 18 53 2e bd da eb 88 3d
       -0.008144745 -0.033859868 -0.042559713 0.0668561
000250 85 e7 7a 3e 02 a0 27 be 30 67 a6 3d f6 31 25 be
       0.2450238 -0.16369632 0.0812515 -0.1613234
000260 ea be 3c be 2a 4a 40 3e bc d0 93 3e 8e 4c af be
       -0.18432203 0.18778291 0.2887019 -0.34238094
000270 09 0e 09 bf 05 27 8e be a8 94 c8 3c 16 bb 21 3e
       -0.5353704 -0.27764145 0.024484947 0.15794024
000280 97 10 b3 3d e1 97 6a be 0e 91 89 3d 08 3a 4e be
       0.08743399 -0.229095 0.0671712 -0.20139325
000290 09 04 a9 be 11 e3 91 3e ba db c7 3d 84 cd ef be
       -0.3301089 0.2849355 0.097587064 -0.46836483
0002a0 46 f5 ce bb 60 74 d9 be 20 3c 94 bd 2c 86 f3 3e
       -0.00631586 -0.424716 -0.072380304 0.47563303
0002b0 8f ad f2 3e f9 33 75 bc bd c3 63 be 1b 2a 6c be
       0.4739804 -0.0149660045 -0.22242637 -0.23062937
0002c0 ee 45 b8 3e df 9e 19 bd aa 95 1b bc e2 3a 50 bd
       0.35990852 -0.037505027 -0.009496132 -0.050837405
0002d0 91 25 ac 3d b9 9d 14 bd 17 3b 94 3d 4c ff b4 3c
       0.08405603 -0.03628323 0.07237833 0.022094391
0002e0 d5 96 f1 bd 80 8f b4 3c 94 b9 e7 3d 4f b5 a3 be
       -0.11796347 0.022041082 0.11314693 -0.31974265
0002f0 34 18 f9 bc 9a d9 20 3e 19 9d 05 3e b6 07 9b 3d
       -0.030407049 0.15708008 0.13048209 0.0756983
000300 9d 9a 85 bd 8b 4d 81 be ca 67 21 bf 5c 56 a2 be
       -0.06523631 -0.25254473 -0.63048995 -0.31706512
000310 65 d5 c0 be f1 d2 a1 3d c4 fb 07 3e 2c eb 4b be
       -0.37662807 0.07901562 0.13279635 -0.1991393
000320 d6 0c 93 be 3e 02 1c 3d d7 66 b1 bc c4 93 77 be
       -0.2872073 0.038088076 -0.021655483 -0.24177462
000330 4e c9 d8 3e 6d 70 9e bd 3c e8 c4 bd 70 18 7c 3e
       0.42341083 -0.07736287 -0.09614608 0.24618697
000340 af a9 6d bd 2d 20 cb bd 8d 1d 2b bd 7a cf eb 3b
       -0.05802315 -0.099182464 -0.04177623 0.007196364
000350 3e ea 39 bf 5e 97 a2 be 71 30 85 bf da 1d 8e bd
       -0.7262305 -0.3175611 -1.0405408 -0.069392875
000360 da cc 8d 3d 59 9b 8b bd e1 8f 96 3d fb ca ef 3e
       0.06923838 -0.068167396 0.073516615 0.4683455
000370 91 b4 6e 3d 57 d3 a1 bd a9 8f 87 3b 24 47 d9 bd
       0.05827767 -0.07901638 0.0041369987 -0.10609272
000380 fa 5b 8d 3e b8 27 ce be 4d 65 c7 be b7 5b f7 3d
       0.27609235 -0.40264678 -0.38944474 0.1207804
000390 9e ca 9a be 5f bc d1 3d f9 b9 a1 be b8 95 94 bf
       -0.3023271 0.10241007 -0.31587198 -1.160819
0003a0 36 b7 82 3e 08 08 9c be 5a 09 52 be 56 c1 32 bf
       0.25530404 -0.30474877 -0.2051138 -0.6982626
0003b0 8c 03 ab bc 0b 65 12 bf 5f 4b b7 bd 93 e6 96 3e
       -0.020875715 -0.5718543 -0.08949923 0.2947279
0003c0 2f a5 94 be 4e 5c 8a be 33 17 25 be 05 2d 46 bf
       -0.29032275 -0.27023548 -0.16122131 -0.77412444
0003d0 1b 1c f1 3d 38 5b 99 bc 62 b3 0a 3f 8d 2a 1e be
       0.11772939 -0.018720254 0.54179966 -0.1544592
0003e0 b5 12 95 3d 3e 16 c2 3d 4f da 0c bf d2 28 0a c0
       0.07278959 0.094768986 -0.5502061 -2.1587415
0003f0 21 21 be bd 00 79 d6 be b8 e6 30 be c8 34 4f bd
       -0.092836626 -0.4188919 -0.17275512 -0.050587445

fc1.bias f4 [64]
000000 63 44 0d 3e 45 b6 07 be 34 c5 14 be 15 4e cd 3c
       0.13795619 -0.13253124 -0.14528352 0.025061646
000010 db 7c 55 bd 51 56 0f be 0a 63 e0 3c b2 3f b1 3d
       -0.052121025 -0.13997771 0.027390976 0.08654727
000020 08 5a 11 be da 29 c5 3d cb 12 4b be 24 d6 a3 3d
       -0.141945 0.09627123 -0.19831388 0.079998285
000030 66 03 59 3e a5 6d 11 3c 3a 7b d1 bd dc da 62 be
       0.21192703 0.008876239 -0.10228582 -0.221538
000040 d6 3b 30 bd da f0 97 bd 50 e6 d0 3a 32 f1 84 3b
       -0.043025814 -0.07418986 0.0015937779 0.004057073
000050 4a 9a 1b bd 5d 6d 53 3e ca 8c fc bd ea ef cf bd
       -0.03798894 0.20647188 -0.12331541 -0.10153182
000060 9e 8a 89 bd b8 4c 7b 3e fa c3 f9 3c e1 84 6f 3c
       -0.06715892 0.24540985 0.030488957 0.014619083
000070 3f 14 c3 bd 09 fe a4 3d 57 c1 af 3c f6 89 8b bd
       -0.09525346 0.08056266 0.021454496 -0.06813423
000080 e9 98 af bd eb c3 1e bd 59 0a c5 bd 77 68 a0 bd
       -0.08574087 -0.03876106 -0.09621114 -0.07832425
000090 39 cf 8a 3d 4f 1e 5b be 5c d6 92 3b b2 ac 3c 3e
       0.06777806 -0.2139828 0.00448112 0.18425253
0000a0 fa f6 b4 bd c4 93 8e 3d bc d3 05 3e aa bf 8d bd
       -0.088361695 0.06961778 0.13069052 -0.06921323
0000b0 78 ab 45 bd f6 49 24 bd 01 81 da bd 26 33 20 3d
       -0.04825923 -0.040109597 -0.10669137 0.03911128
0000c0 9b 3a 97 bb 64 1d 9d bd 9a da f7 bd fa a2 53 3e
       -0.0046151406 -0.076716214 -0.12102242 0.2066764
0000d0 f0 5e d7 3d 55 a5 05 be 42 f4 4f 3e 37 5c 01 be
       0.10516155 -0.1305135 0.2030802 -0.12632833
0000e0 ad 31 01 3d f1 d8 2a bc 31 eb e2 3c ee e4 5f 3e
       0.031541515 -0.010427699 0.027700039 0.21864673
0000f0 58 91 0e bd 12 a1 c8 3c cd 7f 57 3c 9f df 24 be
       -0.03480658 0.024490867 0.013153029 -0.1610093

fc2.weight f4 [64, 64]
000000 c2 21 8f be 39 b4 db bd f1 16 8e 3e ff 48 13 be
       -0.27955443 -0.10727734 0.27751878 -0.14383315
000010 a8 07 9a 3d 13 f9 ff bc 51 de 87 be 9d 64 9f 3e
       0.075209916 -0.031246698 -0.265368 0.3113145
000020 e2 7f 39 3d 48 31 07 bf 31 25 0b be ec 60 3b 3e
       0.045287974 -0.5280957 -0.13588406 0.18298692
000030 db 7d 63 bd 18 6f 74 3d a0 10 44 bd 9a 24 f0 bd
       -0.055539947 0.05967626 -0.047867417 -0.11725731
000040 d8 a6 a3 bd 6e 2b e4 3c 61 65 c8 bd 6b 90 a2 3e
       -0.07990807 0.02785274 -0.097849615 0.31750807
000050 12 ff 90 3e d5 10 c7 bc ec 3f 78 bc 3c 02 a5 3d
       0.28319603 -0.024300018 -0.015151959 0.08057067
000060 4d 8b 8a 3d 8a 4f 31 3e 38 13 b9 3d 98 00 ef bc
       0.06764851 0.17315498 0.09036869 -0.029175088
000070 44 8a 76 be 20 e6 63 bc c4 02 9d 3d 49 5d 13 3c
       -0.24076182 -0.013909847 0.07666543 0.008994409
000080 6c f7 a8 3d 3b ed 4f 3e 3c f6 bf be eb bf f8 bd
       0.08250317 0.2030534 -0.3749255 -0.121459804
000090 2d a1 27 be 8c f9 92 be b2 24 9a be 5a 99 01 bf
       -0.16370077 -0.28706014 -0.3010612 -0.5062462
0000a0 f3 6a f6 bd 50 ed 20 be ea 8c 27 3b b9 72 b4 3e
       -0.12032118 -0.15715528 0.002556617 0.35243776
0000b0 42 3f 7c bd ee 03 e1 3d d2 df e4 3c d6 ed 2e 3e
       -0.061583765 0.10987078 0.027938757 0.17082915
0000c0 b5 95 f1 3c 84 f2 8c bc 7c 34 63 3e 31 81 9b 3e
       0.029490331 -0.017205484 0.2218799 0.30372003
0000d0 57 da e2 bc 60 6f d5 be fd 7a 30 3d 63 3d fc bd
       -0.027692003 -0.41686535 0.04308604 -0.12316396
0000e0 e5 03 a6 be dd ce 9d be 07 38 78 bd 69 7e 11 3e
       -0.32424846 -0.30821887 -0.060600307 0.14208378
0000f0 c3 69 24 be fa ed 13 be 09 bd d2 be 3c 69 84 be
       -0.1605597 -0.1444625 -0.41159847 -0.25861537
000100 97 fc aa 3e 63 e4 27 bd 30 fd 28 be 97 c3 57 3d
       0.33395836 -0.04098929 -0.16502833 0.052676763
000110 66 02 ae bc 65 4d e8 bc ae d6 9d 3e f0 36 80 be
       -0.021241378 -0.028357217 0.3082785 -0.25041914
000120 dd b1 69 bd 23 a2 1b bf 24 d4 e1 bd e7 f2 f8 3e
       -0.05705439 -0.60794276 -0.11026791 0.4862282
000130 55 bd 17 3e 28 51 09 bf 05 66 d0 be 7d 8d ae 3d
       0.14818318 -0.5363946 -0.40702835 0.085230805
000140 e9 da 99 be ec d5 61 bf 0e f8 3f bd d1 c2 ca be
       -0.30049828 -0.88217044 -0.046867423 -0.39601758
000150 0d 7a 9e 3e e8 d2 4f be 35 bc 1f bf c7 15 19 bd
       0.30952492 -0.20295298 -0.62396556 -0.037374284
000160 4a f9 49 be d0 a2 c5 be e4 c6 2d 3e ac 32 44 be
       -0.19724002 -0.3860078 0.16970402 -0.19159955
000170 34 b9 78 3e 40 2c 0f 3d fb 4a 59 3d 8e a1 0d bf
       0.242894 0.03495431 0.053050023 -0.5532464
000180 cb 6c 05 3d c6 fc 39 3e 2b 62 b1 be c5 af 97 be
       0.032574456 0.18162832 -0.3464521 -0.2962629
000190 1f 2d c3 be aa f4 c8 3e 4c a4 c7 bd 03 dc b2 be
       -0.38120362 0.39249164 -0.09748134 -0.3493348
0001a0 86 0e 88 be fe 5b f4 3d 3c 67 00 3e 4a c6 92 bd
       -0.2657358 0.119316086 0.12539381 -0.07166727
0001b0 5a 91 cc 3d 47 26 ba 3c da 17 d3 bc 94 e8 c4 be
       0.09988661 0.02272333 -0.02576821 -0.38458693
0001c0 07 82 3a bf b5 f3 8e 3d a9 99 87 be e0 da 38 be
       -0.72854656 0.06980077 -0.2648442 -0.18052244
0001d0 76 ed 1d 3d f1 df cc 3d f6 74 17 bf 6c 63 06 bf
       0.03855654 0.10003651 -0.59162843 -0.52495456
0001e0 47 4f a3 be f2 37 cc bc fd eb 88 3e e9 d2 07 be
       -0.3189642 -0.02492902 0.26742545 -0.1326405
0001f0 f1 3a 2e be 8b 03 53 bf 9a 8e 97 3e ed f3 21 3c
       -0.17014672 -0.8242728 0.29600984 0.009884817
000200 6f f3 3e bd 1f a4 0e bf 2c e0 c1 be 40 bd a6 bd
       -0.046618875 -0.5571918 -0.37866342 -0.08141565
000210 fe d4 3f be 81 f7 af bc cb 14 47 bd b3 22 06 bf
       -0.18733594 -0.021480324 -0.048603814 -0.52396697
000220 ff ee 8a bd ba 13 39 3e 15 07 56 bd 08 ca c1 3d
       -0.06783866 0.18073931 -0.052252848 0.094623625
000230 66 b5 5c 3c fe 20 88 3e 16 1f 0f 3e b9 1a a0 bd
       0.013470983 0.2658767 0.13976702 -0.07817597
000240 f7 06 66 bd 45 b5 9b be 3d 83 94 3d f4 c4 88 3e
       -0.056158986 -0.30411735 0.07251594 0.26712763
000250 73 e2 0b be ec 87 8b bd a7 b5 2e bd 9c 0f c7 be
       -0.13660602 -0.068130344 -0.042653706 -0.38879097
000260 ae 33 87 3d 4d ca 14 3e 39 fa bf be 86 f3 33 be
       0.06601654 0.14530297 -0.37495592 -0.17573366
000270 7f 6a 94 bc 87 a6 1c be 65 8d 95 bf 67 bf 74 be
       -0.018117188 -0.152979 -1.1683775 -0.23901139
000280 41 f5 5c bf c6 22 0f 3e bc 31 18 be 94 eb f4 3d
       -0.8631173 0.13978109 -0.14862722 0.119589955
000290 83 66 15 bf 9d 27 c7 3e b5 da 0c 3e 99 1b 48 3e
       -0.58359545 0.3889741 0.13755305 0.19541778
0002a0 43 96 b7 be ce b2 bb 3a 6d 82 84 3c 42 59 10 bf
       -0.35856828 0.0014320256 0.016175473 -0.56386197
0002b0 7f f1 36 3e 80 4a 02 be 59 60 59 bc b5 56 c7 3e
       0.17865561 -0.12723732 -0.0132676 0.3893334
0002c0 c5 77 60 3e 05 94 5f 3e 30 c1 97 3e c2 d3 68 bd
       0.21920688 0.21833809 0.29639578 -0.056842573
0002d0 48 7f 0e bf 67 de 49 bd 23 45 d8 3d fc d4 27 3d
       -0.55662966 -0.049284365 0.10560062 0.040974602
0002e0 e9 9c 99 be c8 0d 5d 3e fd fe 2f bf ea e9 41 3e
       -0.30002525 0.21587288 -0.68748456 0.18936887
0002f0 33 72 b8 bd 9f 08 81 3d ce 7f 13 be 43 76 96 be
       -0.09006157 0.063004725 -0.14404222 -0.29387102
000300 fb 97 d5 3e 6d a1 85 be 5a 8c 0a 3e 28 a6 c0 ba
       0.41717514 -0.2609972 0.13530102 -0.0014697956
000310 62 1e be be 82 d8 bb be 35 88 3d 3e 56 3e d9 bb
       -0.37132555 -0.3668862 0.1850899 -0.0066297455
000320 c5 9d 91 3e 92 d6 02 3e cf da f2 bd 77 90 b9 bc
       0.2844068 0.12777165 -0.11858141 -0.022651894
000330 44 a3 75 3d f6 ae b1 bd 2c 40 5d be 05 dc 15 3c
       0.059970155 -0.08675949 -0.21606511 0.009146695
000340 0b fe 96 3e e5 a8 d1 3d fb b1 57 bf dd 15 7a 3e
       0.29490694 0.10237292 -0.8425595 0.24422403
000350 51 40 22 3d 67 36 07 be 3a a9 2c bd 35 c5 21 bf
       0.03961212 -0.13204347 -0.042153575 -0.6319154
000360 53 39 9c be 95 90 11 be c7 7d 04 3f 15 80 86 bc
       -0.30512485 -0.1421531 0.5175442 -0.016418496
000370 e1 fe 03 3e c9 06 41 bf af 07 d0 be 99 fc 2b be
       0.12890197 -0.7540098 -0.40630862 -0.16795577
000380 64 ab a0 bd 5d a1 6f 3d a6 86 c8 be 2c fa cc bd
       -0.0784519 0.058503497 -0.3916523 -0.10008654
000390 9c 2d 44 3c 35 fd b3 3e fb d4 45 be 86 1b b6 be
       0.011973765 0.3515412 -0.19319527 -0.35567874
0003a0 39 da 4b be dc ce 92 3e ce 63 0f be 9c 73 b4 3d
       -0.19907464 0.28673446 -0.14002916 0.08811113
0003b0 e8 45 24 3d 4b b8 93 be f1 29 06 bf b5 09 d5 3e
       0.04010573 -0.28851542 -0.5240775 0.41608968
0003c0 e4 17 c5 be 41 73 a2 be d2 9b 1d 3c 7b 75 45 be
       -0.3849479 -0.31728557 0.00961967 -0.19283096
0003d0 a3 c8 52 be 79 bb f2 bd df 53 a0 be d8 6e 79 be
       -0.2058435 -0.11852164 -0.3131399 -0.2435869
0003e0 5c fd cb be 8d 55 c8 be fb 73 c0 3e a2 81 03 3e
       -0.39841735 -0.3912777 0.37588486 0.1284242
0003f0 8c ec 37 bd 13 b1 f5 be 98 3c c7 3e 97 f4 36 be
       -0.044903323 -0.4798666 0.38913417 -0.17866741

fc2.bias f4 [64]
000000 02 77 d4 3e 1a d7 1a bd 9d 8c ac be 3f 9c e2 bd
       0.41497046 -0.037802793 -0.3370103 -0.11064958
000010 ed 8d 92 be 84 93 a9 bd 5b 40 9c be d7 bb 1a be
       -0.28623906 -0.082800895 -0.3051785 -0.15110718
000020 ab 4b c3 bd be 0e 58 be 66 42 47 3d 72 6e ea bd
       -0.09535917 -0.21099374 0.048647307 -0.11446847
000030 d2 c4 d5 bd e5 18 5b be 76 01 95 3e 17 b6 0b be
       -0.10437931 -0.21396215 0.29102677 -0.1364368
000040 d1 ec f2 3e 45 7c 4b be 73 2b bb 3d ae 33 e4 bd
       0.47446302 -0.19871624 0.09139147 -0.111426696
000050 a7 0c 99 3d 88 dc b3 bb a2 6a 4b be 5d dd ed bd
       0.07473116 -0.005488936 -0.19864896 -0.11614487
000060 3b 73 c3 be 35 68 9d 3e 1a 21 e1 bd aa cc 35 be
       -0.3817385 0.30743566 -0.10992642 -0.17753854
000070 0b ae 18 be 61 af 4a 3f 05 c3 92 be b2 27 14 3e
       -0.14910142 0.79173857 -0.28664413 0.14468268
000080 82 02 34 3f e5 13 27 3e ab ba d6 bd de 59 15 be
       0.70316327 0.16316183 -0.10484823 -0.14585063
000090 c5 02 87 3e 4e d3 5a be 49 b2 ea bd 04 ac 58 3f
       0.263693 -0.21369669 -0.114597864 0.84637475
0000a0 db 97 59 be 74 16 d7 bd 8f b9 d1 be 26 a7 b5 bd
       -0.21249335 -0.105023295 -0.40961882 -0.08869772
0000b0 72 72 14 bd 79 ab 4e 3e 9c 69 7f bd a7 5c 0d 3f
       -0.036241956 0.20182599 -0.062356576 0.552195
0000c0 e1 64 82 bb ba b6 b1 bc b3 f4 0c be 19 fe c8 3d
       -0.003979311 -0.021693576 -0.1376522 0.0981409
0000d0 7b 3b 16 be 87 8c 2e 3f 6a 4e 52 3e 7c fb 1e bb
       -0.14671127 0.6818318 0.20537725 -0.0024258783
0000e0 c8 35 8c 3d c6 b1 47 3e 1c c9 87 3d a8 92 dc bd
       0.068461955 0.19501409 0.066301554 -0.1077016
0000f0 64 55 59 bd 39 fa a9 be f7 30 95 be 2b 64 34 3d
       -0.05305995 -0.33198717 -0.2913892 0.04404084

fc3.weight f4 [4, 64]
000000 10 58 62 3e a3 12 fb be 1d fb bb bd 05 fe d0 be
       0.22103906 -0.49037656 -0.091787554 -0.40818802
000010 3d 47 51 3e e9 59 47 be eb 49 f3 3e 72 50 a8 bd
       0.20437331 -0.19467892 0.47517332 -0.08218469
000020 81 ee 57 3e 16 bf a8 be 69 21 78 3c 9b 19 e2 3e
       0.21087076 -0.32958287 0.015144684 0.4416016
000030 37 24 9e 3d 6b 3b 2c be 79 df 5e 3e 7e ec 40 be
       0.07721751 -0.16819541 0.21764936 -0.18840215
000040 2c e0 0c 3e c5 c9 a3 be f0 70 b3 3e 3c a3 cc be
       0.1375739 -0.31989875 0.35047102 -0.39968288
000050 3a 4c ab 3c 3a 41 cb bd 02 aa c2 be d0 d1 fa bd
       0.020910371 -0.0992455 -0.3802033 -0.1224705
000060 22 14 04 be e9 e2 bb 3e 83 7f f6 bd 64 73 59 3e
       -0.12898305 0.36696556 -0.1203604 0.21235424
000070 c3 aa 6d be 17 77 94 3e c1 60 85 bd 0f 4a 4e 3d
       -0.23209672 0.28997108 -0.06512595 0.050363597
000080 7c 90 61 3e d5 6b 5f 3d 01 80 66 3e b3 83 33 bd
       0.22027773 0.054546196 0.22509767 -0.04382677
000090 21 27 66 3e be 00 ab 3d 3e 00 af be e6 05 72 3e
       0.22475864 0.08349751 -0.34179872 0.23635063
0000a0 93 6a f0 3d ff 87 c2 3e df 2d 5c be 9e 8b a1 3c
       0.117390774 0.37994382 -0.21501873 0.019719895
0000b0 ea f9 d6 3b 47 ba 53 3e dd a3 e5 bd 1f db 00 3e
       0.006560554 0.20676528 -0.11212895 0.12583588
0000c0 17 bc 05 bf 41 e8 f3 be e3 fa b3 be 84 38 02 3e
       -0.5224013 -0.47638133 -0.3515235 0.12716872
0000d0 4c 5b d9 3d b9 b1 84 3e 5a 89 e5 3e ee 82 8f be
       0.106131166 0.25916842 0.44831353 -0.2802958
0000e0 83 f9 a0 be f2 63 51 3e 8f d6 cb 3d 76 93 09 bf
       -0.31440362 0.20448282 0.09953033 -0.5374063
0000f0 c2 da b5 be 6c f0 4f be df 1b 14 be 7e 9d 2f be
       -0.3551846 -0.20306557 -0.14463757 -0.17149922
000100 d9 7e 44 3e aa 38 ba bc df da 4a bd a7 5a a1 bd
       0.19189014 -0.022732098 -0.049525138 -0.07878619
000110 b0 f5 e6 3c f1 a3 50 3e f6 f4 03 bf 13 98 02 be
       0.028193325 0.20375039 -0.51545656 -0.12753324
000120 0d 42 5f 3e b1 37 3a be 49 bd c8 3d c5 a7 65 bd
       0.2180254 -0.18185307 0.09801728 -0.0560682
000130 ca f8 91 3d eb b9 3c be b6 91 6b 3e ff 74 9e 3e
       0.07127531 -0.18430297 0.23004803 0.30948636
000140 7c 1d 89 3e 0c 4c 70 bd fd f6 e3 3e 7b dc 21 3f
       0.26780307 -0.058666274 0.44524375 0.6322705
000150 2f 8d 84 3b d3 3c 39 be b1 90 f1 bd 6e 07 91 bc
       0.0040451507 -0.18089609 -0.11795176 -0.017703738
000160 62 b0 13 be c1 01 dc 3e 8f 0a 48 3e b8 05 32 3e
       -0.14422753 0.42970088 0.19535278 0.17384994
000170 8c a7 80 be d3 4c 8f 3e 20 0c de bd 6f 11 c6 bd
       -0.25127828 0.279883 -0.108421564 -0.09671294
000180 1a 71 83 3e 1f 2a 28 3e 8f 79 cd 3e 18 ab 3b bd
       0.25672227 0.16422318 0.40131804 -0.045817465
000190 50 c5 80 3e b0 13 8c 3d 56 2c e3 3d b5 d0 64 3e
       0.25150537 0.068396926 0.11092441 0.2234524
0001a0 ae 03 a2 3d ec ec ba be 45 41 2a bd ed 5f c7 3d
       0.07910858 -0.36508882 -0.041566152 0.09735093
0001b0 53 2e 84 be 54 56 70 3e bc 43 a1 bc 81 b8 e4 3d
       -0.25816593 0.23470432 -0.019685619 0.11168004
0001c0 98 87 99 bd 0d a0 8f be 74 ab 8a be cd 71 48 3d
       -0.074965656 -0.28051797 -0.27083933 0.048936654
0001d0 9a 06 d7 3d c7 1d c1 3e 21 51 96 3e 7f e2 22 bd
       0.10499306 0.3771803 0.2935877 -0.039766785
0001e0 87 3f 4e be d9 9e 96 3e f4 4f 8f 3e f5 c9 d1 be
       -0.20141421 0.29418066 0.27990687 -0.40974393
0001f0 04 75 97 be 53 c0 dd bd 1a d6 84 be 5e 0e 04 3d
       -0.29581463 -0.108276986 -0.25944597 0.032240264
000200 c6 f1 56 3e 45 84 80 be f5 26 2a 3e 77 7d c0 be
       0.20990667 -0.25100914 0.16616423 -0.37595722
000210 8b b7 85 be ff 86 89 be 1d 4e a3 3e 81 61 ba bd
       -0.26116595 -0.26860806 0.31895533 -0.09100629
000220 e9 2f a5 3e e8 45 83 be 0f 5e 0a 3e ff 2e b8 3e
       0.32263115 -0.25639272 0.13512443 0.35973355
000230 07 4f 11 3e 23 ac 36 be 18 4e ea 3d 30 bf a1 be
       0.14190303 -0.17839102 0.114406765 -0.31591177
000240 15 e4 db 3d 85 e0 e3 be 3d 2d 31 3e cc 0d 76 3e
       0.107368626 -0.44507232 0.17302413 0.240287
000250 33 d9 32 be 15 5b f4 be 98 81 3a be c3 4b 83 bd
       -0.17465667 -0.4772574 -0.18213499 -0.06410935
000260 ca 92 b1 3d ed 9e 81 3e 93 8b 1a 3f f5 58 f2 3d
       0.08670576 0.25316563 0.60369223 0.118333735
000270 9c b2 01 bf 33 8b 43 3e a2 fe 1b be 59 4e c6 3d
       -0.5066316 0.19096069 -0.15233853 0.096829124
000280 74 64 5d 3e 91 52 78 3e 11 3a 30 bf 9a 20 b8 be
       0.21620351 0.24250247 -0.688386 -0.35962373
000290 9b 15 1a 3e 89 53 c1 3e 82 19 f9 3e bd 42 ad 3e
       0.15047304 0.37759045 0.48652273 0.3383998
0002a0 62 77 ce 3d 42 81 1d 3d 48 b8 36 be 69 14 bb be
       0.10081364 0.038453348 -0.17843735 -0.3653901
0002b0 17 9d c1 3e e7 fc 98 3d fa 79 16 bd e6 0a 86 3e
       0.37815163 0.07470112 -0.03673742 0.2618019
0002c0 da ca 02 be 89 1a cd 3e 99 d9 f7 bd 20 a0 9e 3d
       -0.12772694 0.40059307 -0.1210205 0.07745385
0002d0 cd b4 bf bd bb 50 9b 3e 74 df b5 3e 96 00 a0 be
       -0.09360657 0.3033503 0.35522044 -0.31250447
0002e0 e8 80 80 bf be 58 86 3e 94 f3 48 bf fc 24 8f be
       -1.0039339 0.2623958 -0.7849667 -0.27957904
0002f0 11 82 ac 3e 8d f0 d1 3e b5 34 74 be 90 3c 1a 3e
       0.33692983 0.41003838 -0.23848231 0.15062165
000300 fb 68 d6 3c 91 b2 1c 3f 32 e4 ac 3d 48 f8 41 bf
       0.026173105 0.6120997 0.08441962 -0.7576947
000310 cb c0 f5 bd 15 d2 41 bf 75 8f d9 be 68 f4 37 bb
       -0.11999663 -0.75711185 -0.42492262 -0.0028069261
000320 c2 37 04 3e 9f 9d 57 be 2e 5c 35 3e 8b 48 fe bd
       0.12911895 -0.21056221 0.17710945 -0.1241618
000330 a8 a6 bd be 1e e6 72 be 33 e3 4e 3e 23 76 eb bc
       -0.3704121 -0.23720595 0.20203857 -0.028742855
000340 aa 37 8c 3e df 8a 80 3e 6c ef d0 3e b7 9e e0 bd
       0.27386218 0.2510595 0.40807664 -0.109677725
000350 37 84 16 3e 9d 53 21 3d 34 ae ae be 58 93 08 3e
       0.14698873 0.03938638 -0.3411728 0.13337457
000360 0c 9c 36 be ec 7a 9d 3e 20 26 83 be 56 11 8a be
       -0.17832965 0.30757844 -0.25615025 -0.2696635
000370 a7 fc 8c be 63 22 9d 3e 58 24 58 3e 80 e6 2b 3e
       -0.27536508 0.30690297 0.21107614 0.16787148
000380 d5 84 9d 3e fb ab 53 3c ff 20 90 3e 65 b9 e9 3c
       0.30765405 0.012919421 0.28150174 0.028530786
000390 e0 92 4d 3e 5b fb e4 3e 00 bf cb be 10 e2 44 3e
       0.2007556 0.4472302 -0.3979416 0.19226861
0003a0 32 3b 5a 3d 06 d6 b6 3e 32 9e 73 be bf c4 22 3f
       0.05327911 0.35710162 -0.23790815 0.6358146
0003b0 b5 62 23 3e 25 2b 40 bd 9a c3 c5 3b a9 1d 37 3e
       0.15955622 -0.046916146 0.0060352804 0.17882408
0003c0 dd 5c 07 bf a2 37 b2 be 63 55 a1 be 9f a2 c8 3e
       -0.52876073 -0.3480807 -0.31510457 0.3918657
0003d0 72 b1 bb bd fb 7e b2 3e 85 8e 5f 3e ae 10 5f 3f
       -0.091647044 0.34862503 0.2183171 0.87134826
0003e0 a2 93 cd 3d fb 00 35 3e 8a 0d b5 be 5f 98 f6 be
       0.10037924 0.17676155 -0.35361892 -0.48163125
0003f0 9f 9f dd be 0f e8 36 be 94 8c 95 3b 4d a1 51 be
       -0.43285844 -0.17861961 0.0045638774 -0.20471688

fc3.bias f4 [4]
000000 40 79 22 3f 9b bf ca 3e d9 63 0a 3f 34 99 e8 3e
       0.6346626 0.39599308 0.54058605 0.45429385
