checkpoints_torch/ddqn_weights_latest.pth (torch, 29797 bytes, 6 tensors)

fc1.weight f4 [64, 37]
00000000: c7ac 603e 0b4c a33c 6a13 423e 9108 7d3e
00000010: 661e 0c3e 98f8 ba3e 2d14 e83d 236d 65be
00000020: 7cc9 34be d548 c1be bba9 e93d 5bb7 0c3e
00000030: a950 5a3e 0698 b83d 683e 493e 33e9 f03d
00000040: fb47 f23d 7727 523e fe41 953e 8e53 7b3e
00000050: 7234 9c3d 9714 2b3d 992d 293e 56d4 4b3e
00000060: 9a8b 943e 7910 8a3e 633a aa3d baf7 84bc
00000070: e56b 7f3e 510c 8f3e dafa 133e 8364 ebbd
00000080: 9f86 dd3d 219f 983e 584f 0a3f 77be 3fbd
00000090: 60f4 e83c c038 cebc d84c 91bd 2820 b9bd
000000a0: c906 74be 98ca 08bf 0e6c a03d c6e7 fdbd
000000b0: 1e72 f1bd 542b 3e3b 393a be3e 6139 a53d
000000c0: 41b3 ddbd 31ff 53bc 20e2 3dbd 4422 983e
000000d0: 93e4 753d 9b52 823d e9ba 473c 0537 c9bd
000000e0: 88f8 8abe e6d2 6a3d 36d6 36bd de2f 723d
000000f0: 96fa 223e 2933 803e da52 753e 426b dbbd
00000100: 59b4 a0bc 1557 18be 7399 d93d a845 b9bd
00000110: 4e32 a0be b164 20be 7c7b 593e d312 3a3f
00000120: d2c6 09be 7524 fa3c 6f47 35be 59fe 91be
00000130: dd38 f5bd 8a86 0bbe 80dc 98bd 8dec 4fbf
00000140: d0f6 943d 275c 2c3e 8ff7 92bc 4ed2 07be
00000150: 0401 21be 7084 c4bd 4401 89be cb77 d6bb
00000160: 6b56 a03e fb41 f5be 51f1 e7bd 10cb 59be
00000170: 5f82 6fbd 0a12 753e b3e9 28be d801 68be
00000180: 3f90 c03c 016a 8cbe 8f23 07be 5898 b5be
00000190: 3fd6 5cbe 652f 35be 01b7 57be 8e2b 02be
000001a0: 39df 65be c30b f23d 4935 38be 96f6 84be
000001b0: dd32 dabd 95ae 2abe cd37 2d3e 66a0 323e
000001c0: 3477 e8be 7b44 1f3e aabe 45bf 0bfc 4ebf
000001d0: 5291 c4bd 638d 25be 80ef 963e 740b 3dbe
000001e0: fab3 5bbe 6a03 d93d 103b 89bd 830b 323e
000001f0: 9073 a9bd 9108 0dbf 878e 083e a2f5 f93c
00000200: 489d b8bd 04e6 cabe fff9 04bf 38ca 583d
00000210: 537a 24bf 0ce5 e53d 6bd5 47bc 6632 14be
00000220: 91ac 2abe ca04 16bf 9358 103f 022b 19bf
00000230: fd4a cbbf ccba 613e d714 aabe 80b0 e03c
00000240: 6e75 08be cbe5 c1be 428e 8e3d ded2 79bc
00000250: 7d7e 8f3e 3393 abbe 17d9 133e 1908 7ebd
00000260: d4d2 8fbe aba0 0fbe c491 533e 1de0 983b
00000270: cf20 82be 5b34 dcbe ed78 4f3e d17a 7ebe
00000280: 5a2e 6abe 2544 bb3e 82c7 953e b167 20be
00000290: 0f1d be3d fd27 f63d 73e1 25bf eeca a73c
000002a0: 96f4 993e c6ef 31bf c519 cabd 469b 37bf
000002b0: 17cb 1ebf 8a85 c9bd 3780 46be fe37 8c3e
000002c0: dc14 debe 7dfb 90be 8b0e f8bd 3e8c f13e
000002d0: 6d83 e83d 7926 d0be fa4b 04bf 833e 6bbd
000002e0: f4a7 61bd 24be 723c b346 323e 4559 5f3d
000002f0: 8675 a43d a3fd f53b 7c87 bf3e f01c a4be
00000300: dd63 2fbe c479 8fbf 353d e3bf 7ac9 f5bb
00000310: ce32 ee3d 2da0 623d 18b8 c73d f28d 983d
00000320: 53a0 34bd cb69 d83b c38b cabc 7211 b33d
00000330: a41b 543d efec ed3d feb8 013e 36c7 253e
00000340: ff87 d73d eaa1 cdbd e439 9d3d da2d 1fbd
00000350: 1d5b 093d 3f03 2d3e 216c cb3d 5182 933d
00000360: d4cd 11bc 7ecb 293e 2c4a 863e b2f1 2f3e
00000370: 013e 11bc 75f1 21bc 5290 223e ec7e fb3d
00000380: 6507 383e bc06 f53d 60fb 9abd 372a 8d3d
00000390: d3c4 df3d 1f9d 483e e8a1 4f3e a361 7e3d
000003a0: 2cde ed3c 475b 303e 4b38 9cbb f0c4 013c
000003b0: b966 09bd cbd3 273d a3f9 c7bd 3492 5e3c
000003c0: 5711 823c 6105 103d ce88 a63c 4764 f93c
000003d0: 42bb 5f3d 9ee9 eb3d e46c 0e3d ca2d cd3e
000003e0: 7d2e 91be 9dc7 33bf 0ee4 67bf 7e70 2dc0
000003f0: 2e38 f23c 177a a63c e825 743d 002c 8a3b
0.2194091 0.019933721 0.18952718 0.24710299 0.13683471 0.36517787 0.11331973 -0.22404914
-0.17654985 -0.3775088 0.11409327 0.1374182 0.21319832 0.09013371 0.19652712 0.11763229
0.118301354 0.20522867 0.2915191 0.24543592 0.07627191 0.041767683 0.165213 0.19905218
0.29012758 0.26965693 0.08311918 -0.016231406 0.24943502 0.27939084 0.14451161 -0.114937805
0.108166926 0.29808906 0.5402732 -0.0468125 0.02843684 -0.025173545 -0.07094735 -0.090393364
-0.23830713 -0.53434134 0.0783311 -0.12397723 -0.11789344 0.0029017525 0.37153795 0.08067585
-0.108252056 -0.01293926 -0.046358228 0.29713643 0.06003244 0.06363412 0.012190559 -0.09824947
-0.2714274 0.057330035 -0.04463788 0.05912768 0.15915903 0.25039032 0.23957387 -0.10713817
-0.019617246 -0.14876969 0.10624971 -0.09046489 -0.3128838 -0.1566341 0.21238512 0.72684973
-0.1345475 0.030534962 -0.17703031 -0.28514364 -0.119737364 -0.13625541 -0.07463932 -0.8122032
0.07273638 0.16832028 -0.01794031 -0.13263819 -0.15723044 -0.09595573 -0.26758778 -0.006545042
0.31315932 -0.47901902 -0.11325324 -0.21268868 -0.05847394 0.23932663 -0.16495399 -0.22656953
0.023506282 -0.27424625 -0.13197158 -0.35467792 -0.21566103 -0.17693861 -0.21065904 -0.12711927
-0.22448434 0.118186496 -0.17989077 -0.2596938 -0.10654233 -0.1666816 0.16915818 0.17444
-0.45403445 0.15553467 -0.77244055 -0.8085334 -0.0959803 -0.16167216 0.294796 -0.184614
-0.21455374 0.10596354 -0.067007184 0.17387204 -0.08273995 -0.55091196 0.1333562 0.030512635
-0.09014374 -0.39628613 -0.51943964 0.052927226 -0.6424915 0.11225328 -0.012196879 -0.1447235
-0.16667391 -0.5860106 0.56385154 -0.5983125 -1.588226 0.22043914 -0.33219025 0.027427912
-0.13326046 -0.3787063 0.06960727 -0.015248029 0.2802619 -0.33510742 0.14438282 -0.06201944
-0.28090537 -0.14026134 0.20661074 0.0046653883 -0.25415656 -0.43008694 0.20260973 -0.24851538
-0.22869244 0.36575428 0.29253775 -0.15664555 0.09282886 0.12019346 -0.64797133 0.020482507
0.30069417 -0.6950649 -0.098681964 -0.71721303 -0.6202864 -0.09839924 -0.19384848 0.2738647
-0.4337529 -0.2831687 -0.12112149 0.4717731 0.113531925 -0.40654352 -0.5167843 -0.057432663
-0.055091813 0.014815841 0.17409782 0.054528493 0.08030228 0.0075070425 0.37408054 -0.32053328
-0.17127939 -1.1209035 -1.7753054 -0.0075008245 0.11630784 0.055328537 0.0975191 0.07448949
-0.04409821 0.0066044084 -0.024724847 0.08743562 0.051784173 0.11617457 0.12668225 0.16189274
0.10523986 -0.10040648 0.076770574 -0.038862087 0.033534158 0.1689577 0.09932733 0.0720259
-0.008899171 0.16581532 0.26228464 0.17182043 -0.008864881 -0.009884228 0.15875366 0.12280068
0.17971571 0.11964175 -0.07567477 0.068928175 0.10926213 0.19591187 0.20276606 0.062104832
0.029036604 0.1722232 -0.004767453 0.007920489 -0.03354523 0.040973466 -0.09764411 0.013584662
0.015877409 0.03516138 0.020328905 0.030443324 0.054621942 0.11519168 0.034771815 0.40073997
-0.2835578 -0.7022646 -0.9058236 -2.709991 0.029567804 0.020321889 0.059606463 0.004216671

fc1.bias f4 [64]
00000000: 32b3 b53e 1dea 67bd e55c 85be 29a5 e93d
00000010: 36fb bcbd af15 553e 3e71 2e3e 1948 48bd
00000020: 2909 04be 536f fc3d 907e 0fbe 47e3 423e
00000030: bf03 a33e 709e 3bbd 6578 723c 39cb b9bd
00000040: 4bf9 91be d8a3 3bbd 589c 4e3b d6f1 27bc
00000050: cb56 72bc 3088 c43c f002 8cbd 6a1c 3f3d
00000060: 514c 0cbe c830 4d3e 8014 063e e57c ba3e
00000070: 4b28 29be aee6 e63d dd25 713e ffe0 563d
00000080: 29a4 40be e947 79bd 645c 8dbd 2afa 02be
00000090: 185d 373e a00a f0bd d5c6 1abd 9015 443e
000000a0: 5eb4 0cbe 4d67 8a3d e83a f63c 92ab b1bd
000000b0: 17c5 73bd 5571 11bd 3f9f ce3d 6b32 a93c
000000c0: c174 0cbc a9b4 5fbe d6f5 63bd c59d f93c
000000d0: 510e 93bd 3559 083d 8339 493a fdb3 ebbd
000000e0: 72cc cfbd a1a4 58bd df48 023d e25d 463e
000000f0: 9f5b 8bbd d8b5 1dbc bcae 6a3e 4e48 8cbe
0.35488278 -0.056619752 -0.26047435 0.11408455 -0.09227602 0.20809053 0.17035386 -0.048896883
-0.1289412 0.12325921 -0.14013124 0.19032012 0.31838796 -0.045805395 0.014799212 -0.09071965
-0.28510508 -0.04581055 0.0031526294 -0.010250529 -0.014791201 0.02399072 -0.06836498 0.046657957
-0.13700987 0.2003814 0.13093758 0.36423412 -0.16519277 0.112744674 0.235496 0.052460667
-0.18812622 -0.060859594 -0.06902388 -0.12790743 0.17906606 -0.117207766 -0.037787277 0.1914885
-0.1374068 0.06757984 0.030057386 -0.086753026 -0.05951413 -0.035508472 0.100889675 0.020653924
-0.008572758 -0.2184626 -0.05565437 0.030470738 -0.07180465 0.0332882 0.00076761114 -0.115089394
-0.10146417 -0.052891377 0.031807777 0.19371751 -0.06804585 -0.009625874 0.22918218 -0.27398914

fc2.weight f4 [64, 64]
00000000: c024 503d 83c8 d9bd 9663 133d 9e69 f33d
00000010: 2c45 833e ea7f 233e 0e00 3dbe 5098 2b3e
00000020: e0f2 a43d abe0 9abe bf00 2dbe b370 b7bd
00000030: ccad fc3e ac10 a8bd d263 93be 1d86 a4bd
00000040: 0852 8f3d 214c d1bd 5d47 f43c 6cf1 f3bd
00000050: ee91 1abf b7a8 623b 3c65 20bf 8c70 9bbe
00000060: 07d7 2c3a 46ec 223e 9e08 8bbe 08a6 afbd
00000070: 028a ff3d 1d17 bdbd 6469 2c3e 05d4 2abf
00000080: 3288 42bc 6f1d 13be a7b3 82be 3b9e 823d
00000090: bb48 b3be dcf8 2abe efc2 02be eaf4 27bf
000000a0: d628 02bd 208b a1be 748e fd3d a53f 12bb
000000b0: f833 553d a6dc a73d 2d87 773d 4d2c c1bd
000000c0: dd05 353c 3e87 c7bd 5579 1dbe d4ea 71be
000000d0: 4a0c 86bd 4046 07be d766 dfbd b645 50be
000000e0: 7d85 213d d954 f03e 8716 69bd dbb8 2bbe
000000f0: 4e02 7bbd b7ee 5cbe aa35 1a3e 9726 b13d
00000100: d52a bebe 8764 ebbe 8dcd 023e 9662 edbd
00000110: bf8e 0e3d fd19 203e 91bc c8be 1ea8 d8be
00000120: 09a0 37be 0063 4cbe 20ee 5fbd 5fdf 4bbe
00000130: 3cf4 023f 1323 19be 078b 1e3e 310e c3bd
00000140: eefb 5b3e 9299 833e 1684 c8bc 9197 ce3d
00000150: dc48 8b3d 4d84 ddbe e665 ac3e 7355 243d
00000160: 1f86 d33d af33 9ebe 354a ac3e 026a f1bd
00000170: 895c b4be 27ae 30bf 2c9f 7a3e 939f 80be
00000180: 3893 a93c 993f f8bb fd38 aabe 1f83 e9be
00000190: a5db 093e 83cc 993e b164 07bf 72cf 323e
000001a0: b9f7 2abd 7118 ad3d 4155 40be 855d 9abe
000001b0: 54da 0bbf 98fe 7bbe f3f9 7ebe 000c fa3c
000001c0: 8b4e bebe bc2a c1be 7a6c 533e 0e25 8f3e
000001d0: 75a3 11bd 9ad1 4bbe 7f7a 10bf eb13 abbd
000001e0: f453 35be da24 2b3d f175 1bbf 7445 03be
000001f0: e437 cfbd a132 a0bd 5562 8a3e 2ca1 0dbe
00000200: e663 c4be df7f 38bd b2cf c7bc 333d bcbc
00000210: 782a 063e ad22 f63d c7e8 d5bc 90fa 893e
00000220: fa03 6f3e e50f 353e 29b1 08bf c691 0e3c
00000230: 390c dd3e 4653 82bf fb79 c6bd e1bd f7bd
00000240: ae1a 95bd 6033 aa3d e2c6 dc3c 8e5b 25be
00000250: cd0f b73e cf72 bebe 50fe 6a3e 7e0a 543d
00000260: fb89 85be bb3f 79bf 98e7 d23e 052e 1c3e
00000270: f3ba a33d d3c3 50bc 5461 cebd fee5 473d
00000280: 2956 e4be 5844 bbbe 50ac c2be d70e d53d
00000290: adef 1ebd 7b81 603c 8ad4 29be 41c4 f03d
000002a0: 236c dcbd 72db 8f3e a1a4 723e b9f0 a2be
000002b0: cf15 ab3c 3fbd 49be f63e e2bc cc89 2dbf
000002c0: e283 cebe e72a 9e3e 33b7 76bd f167 41bf
000002d0: a5cf 1abe 673e ebbd 48c5 06bf b7c2 c7be
000002e0: b632 c73d e550 44be 2829 31be 2104 b43e
000002f0: aa69 1a3e 2276 713d 6d5d 0b3e 3a0f 4d3e
00000300: 650a 57be d2c0 f3be 7566 61be e34e 063f
00000310: cbc2 91be 6f1b 1b3e 01af 9cbc ef63 443e
00000320: c915 fd3d 414d 2dbd 82f0 ce3e 03c3 28be
00000330: 6b95 ef3e 0a88 92be 5ddc 5d3c dad3 07be
00000340: e0a2 183d 7bee 59be 9853 5cbe a130 d23d
00000350: 7c23 053e e489 7cbe 4697 20be 1925 8a3e
00000360: 2137 6cbe af2a 09be 5d82 a33e def0 43be
00000370: 2c13 56be 709c 49bf bcf4 a3be 40de 42be
00000380: adf0 0ebf 7bc7 93bd 35be 97bd 1c23 d9be
00000390: 10ff 63bc c538 ecbd 55a2 44bf fce5 a0be
000003a0: 8721 d3be 66b5 aa3c a80a e8bd 49eb 463e
000003b0: 8d91 403d 30b5 2ebe 9189 763d c3a5 c33e
000003c0: 9ca2 30bf c218 b83e 1348 8cbe ecf8 823e
000003d0: 5019 47be f31c 9fbe 661b c4bc 9cee 39bf
000003e0: 8e46 f03b 0f72 683e 0f4f 92be 7a98 a6bc
000003f0: 6174 963b 7300 dabe 9457 8b3e f482 ad3d
0.050816298 -0.10633948 0.035983644 0.11885379 0.2563871 0.15966764 -0.18457052 0.16757321
0.08054137 -0.30249533 -0.16894816 -0.089570425 0.49351346 -0.08206305 -0.28787094 -0.080333926
0.06998068 -0.102195986 0.029819185 -0.11911282 -0.6037892 0.0034585425 -0.6265447 -0.30359304
0.0006593321 0.15910444 -0.27155012 -0.0857659 0.12477495 -0.09232924 0.16837078 -0.66729766
-0.011873292 -0.14366697 -0.2552769 0.06377836 -0.35016426 -0.16696495 -0.12769674 -0.65608084
-0.031777225 -0.31551456 0.123806864 -0.0022315767 0.052051514 0.08196382 0.060431648 -0.09432278
0.011048761 -0.09742592 -0.15378316 -0.23624736 -0.06545313 -0.13210392 -0.10908287 -0.20339093
0.039433945 0.46939734 -0.05690625 -0.16769736 -0.061281495 -0.21575437 0.15059534 0.086499386
-0.37142053 -0.45975134 0.12773724 -0.115910694 0.034804102 0.15634914 -0.39206365 -0.42315763
-0.17932142 -0.1995964 -0.054670453 -0.19909428 0.5115392 -0.14954786 0.15482722 -0.09524191
0.21482822 0.25703102 -0.024477046 0.10087503 0.06801006 -0.43265 0.33671492 0.040120553
0.10328316 -0.30898806 0.33650365 -0.117877975 -0.3522685 -0.69015735 0.24474782 -0.25121745
0.020700082 -0.007575941 -0.33246604 -0.4560785 0.13462694 0.30038843 -0.5288802 0.17461947
-0.041740153 0.084519275 -0.18782522 -0.30149475 -0.5463002 -0.24608839 -0.24900036 0.0305233
-0.371693 -0.37727916 0.2064685 0.27957958 -0.035556275 -0.19904175 -0.56436914 -0.083534084
-0.17707807 0.04178319 -0.6072684 -0.12819463 -0.10118082 -0.07822157 0.27028146 -0.13831013
-0.38357466 -0.045043822 -0.024391029 -0.0229784 0.13102138 0.12018333 -0.026111973 0.26948977
0.2334136 0.17681845 -0.53395325 0.008701747 0.43173388 -1.0181663 -0.09691235 -0.120967634
-0.07280479 0.0831058 0.026950303 -0.16148207 0.35754243 -0.37196967 0.22948575 0.05176782
-0.26081833 -0.9736287 0.41192317 0.1525193 0.07994642 -0.012742001 -0.100771576 0.048803322
-0.44596985 -0.3657558 -0.3802209 0.10403221 -0.03880279 0.013702746 -0.16584983 0.117561825
-0.10762813 0.2809711 0.23695613 -0.31824282 0.020884423 -0.19701098 -0.027617913 -0.67788386
-0.40334994 0.30892107 -0.060233306 -0.75549227 -0.15118273 -0.11486512 -0.5264478 -0.39015743
0.09726469 -0.19171484 -0.17300856 0.351594 0.1507937 0.05895055 0.13609858 0.2002534
-0.21000059 -0.47608048 -0.2201174 0.5246412 -0.28468928 0.15147184 -0.019126417 0.19178747
0.12357671 -0.042310003 0.40417868 -0.16480641 0.46793684 -0.28619415 0.013541308 -0.13264409
0.037264705 -0.2128238 -0.21516263 0.102631815 0.13001817 -0.24661976 -0.15682706 0.26981428
-0.23067905 -0.13395189 0.31935397 -0.19134852 -0.20905751 -0.7875433 -0.32022655 -0.19030094
-0.5583599 -0.07215782 -0.07409326 -0.424096 -0.013915792 -0.115342654 -0.768102 -0.31425464
-0.41236517 0.02083845 -0.113301575 0.19425692 0.047013808 -0.17061305 0.060189787 0.38212404
-0.6899812 0.3595639 -0.27398738 0.25580537 -0.1944325 -0.31076774 -0.023938846 -0.72629714
0.0073326295 0.2269976 -0.28575942 -0.020336378 0.00459151 -0.42578468 0.27215254 0.08472243

fc2.bias f4 [64]
00000000: 50a0 433e b5ac 793c c1f6 69bd 329a 02be
00000010: 6942 00be 97e6 133d bcb1 74ba e96c 8ebe
00000020: a69c 993b c8c6 61be 4e7c 0bbe 4ccb 8dbe
00000030: 406c 7abe ca86 98bd 471c 9e3c 9ed3 d1bd
00000040: 3cd8 8e3d 3c9e 1cbe f404 0d3f 8dd1 05be
00000050: 4114 da3b 64a2 b6bd a920 93be 2074 abbd
00000060: 8081 223e f0a1 b6bd d655 42be 3b8f 4ebe
00000070: 8e34 acbd 7b88 303f 6a65 6bbe c6e9 3a3f
00000080: af6a 31be 42d0 f83d bef9 cc3c 1307 bcbd
00000090: b80b f2bd 69f9 2fbe 767b ddbd fb35 043f
000000a0: 061c 403e 709b 31bc 704c c6be 8cae 4c3e
000000b0: 4229 d53c 15c7 623e 6afe a7bd 3788 933e
000000c0: d8e0 033e a056 9bbc 3950 46be 4aba a83e
000000d0: 0e3a d8bd 1dce 113f 24c2 b2be 114a 793e
000000e0: 0864 47be 77c7 f03b bd49 f2bd b571 28be
000000f0: e9a9 b9bd 3e70 3dbe 1e0c b6bd f6fe 1f3d
0.19104123 0.0152389305 -0.05712009 -0.12754133 -0.12525333 0.03610858 -0.0009334346 -0.27817467
0.0046878634 -0.22048485 -0.13621637 -0.27694166 -0.24455357 -0.07447584 0.019300593 -0.10245441
0.06974837 -0.15294737 0.5508568 -0.13068219 0.0066552465 -0.08917692 -0.28735855 -0.083717585
0.15869713 -0.08917606 -0.18978056 -0.20171826 -0.084084615 0.6895825 -0.22987905 0.7301296
-0.17325853 0.12149097 0.02502143 -0.09181037 -0.118186414 -0.17184986 -0.10814564 0.5164487
0.1876069 -0.010840282 -0.38730192 0.1998846 0.02602065 0.22146256 -0.082028225 0.2881486
0.1287874 -0.018962204 -0.1936654 0.32954627 -0.10557948 0.5695513 -0.34913743 0.2434466
-0.19471753 0.007347997 -0.11830471 -0.16449626 -0.09065611 -0.18499848 -0.0888903 0.03906151

fc3.weight f4 [4, 64]
00000000: fd7b 6e3d fbf4 57bf 38f4 84be bd21 053f
00000010: a358 17bc ad6e 1dbf 8f35 05be c91d 4fbe
00000020: 22d1 ca3d 00e6 8cbe e8a7 7fbe 754f a1bd
00000030: 755a 18bc 6eaa bbbc 8419 693e a700 643e
00000040: 6c24 31bf ce34 1bbd e766 ed3d dca6 f3be
00000050: 801a b9bc c587 f4be 0db3 3dbf c6e2 06bf
00000060: 81f6 a73e 43fd 54be 11cb 9fbc 5591 8dbe
00000070: 165e 9abd 2970 863e 0861 0abe b567 473e
00000080: a344 09be 7630 bf3e 1901 55be 2593 2cbb
00000090: 8640 56be c9fb 733d 558d bfbe f2a1 2d3e
000000a0: 0933 8e3e 41ca 023d c504 dbbd 938c c53d
000000b0: 10a3 29be 0286 323e f2b7 61bd 3750 003e
000000c0: 2b35 983e ef3b 80be b17a 35be af78 1a3e
000000d0: 694c 6cbd cea3 763e 79e5 47bd d9ca 273e
000000e0: 6cad 5fbe 293b c33b 32cf 84be f80c ff3d
000000f0: 02f4 01be 5e0e ddbb 324d 95be 0159 203e
00000100: 12f1 303e 17c4 6a3e 8245 f73e 5481 17be
00000110: 427f 8c3c 3d5b c6be 606a 01bd fbe5 3dbe
00000120: 4611 c73b 993b 3bbe 2b8f 4cbe e54f acbe
00000130: 651e f83e 87cf 263e 8b97 3b3e b44f f43e
00000140: 6e6b e4bd 0b91 02bc 228c 1b3e 8f0a 19bf
00000150: b24e 76bb 7703 12be 5334 1abd ddaa 5bbe
00000160: 5fcf af3e a3f9 2abd 0b7a 0ebc 1109 04be
00000170: ac06 b33d 44f6 823e a482 88be 68d9 7b3e
00000180: 65b6 483c ec71 c83e b8c2 7abe 69b9 043e
00000190: 372a 6ebe 9952 c3bd e753 27be d6be b43d
000001a0: 6460 693e 674a 5ebd 4e66 a1be 2290 a73d
000001b0: c187 473e b1b6 f93d cb99 d9bb 60d8 4a3d
000001c0: 4495 673e c590 a4be 3bbe 0d3d e22e 353e
000001d0: e762 873e fb88 7e3e 8d4f c03d d691 643e
000001e0: f2d1 4abd 0123 ba3e 908d edbd 5d27 15bf
000001f0: ef41 673e 7aca a5be bd39 783e d389 c2be
00000200: 0fb0 cd3d 52ee c93b 7604 ef3e 0566 fdbe
00000210: f73d 4b3d 1af5 cfbe d919 e33d aa9c 1ebe
00000220: ce6e 323e c4f9 42be 2717 3ebe e775 89be
00000230: a568 863d 97ef 423f 4fb6 babd 29df b23e
00000240: f1ec febe 7fab 003e 0f3d 503e 79ec e43e
00000250: eb9a 063e 6cb6 81be 06d0 fabc 0ff9 2bbe
00000260: 86da 583e 24e7 00bf d3dd 9a3e 3fb5 32be
00000270: 782d 7cbd 4c7a 203e ec85 cb3b 797a 8e3e
00000280: 97d7 0cbd 9cc0 943e f3dc 14bf 5238 54be
00000290: e4de 53be e05d 38bc d795 aabe 7d37 5a3e
000002a0: 0eed df3d dd88 18bf ff43 31be 1112 9ebd
000002b0: e0a7 673e 1516 013d 8b40 2a3e 5154 143e
000002c0: 6ec1 aa3e 4de9 b8be 87b9 74be 25eb a33d
000002d0: f7e5 e8be 64ad 5c3e b307 373d 2242 353e
000002e0: 462d 3fbe fe56 23be 38e7 ea3e b38c 18bf
000002f0: b8b1 39bf b425 3abe 0fd9 373f c439 423e
00000300: 2ce0 02bf d153 25be 94f1 7bbd 69aa 60be
00000310: 7e79 363c 8a22 f9be 7341 40be 1072 3dbe
00000320: 8f95 023e e5b7 f8bd edd0 77be e9e8 e0bd
00000330: 957b b5bd b25b c0bd fd94 783e 58c5 aabd
00000340: 7bb6 2c3e e635 4a3d 0eb5 183e d644 dabe
00000350: 2b35 3abc 8da8 9bbe 5b0a debe 2c8b afbe
00000360: 03e4 9d3e 3d06 84be e476 99bd 8a64 0bbf
00000370: 121b 02be df8c 763e 95ef e63c 7293 813e
00000380: f483 a1bc 8ea0 193e 5fa5 26be 452e 9c3e
00000390: 07b5 87be 32db 0b3d 8e26 96be 0017 3e3e
000003a0: 4982 973e bd19 a03d 4751 25be 6f28 043e
000003b0: b45b fe3d 859a ef3d 7661 65be 2470 9f3a
000003c0: e3f4 ad3e c743 523f 06aa 68bb c455 e9bc
000003d0: 88dd 7e3e d40b 403e 81c5 b9bd 40b7 183e
000003e0: bb61 323a c468 3e3e dc7a 86be 04f7 abbe
000003f0: 8c42 ff3c d621 9abe e50a 86be 2c06 d3be
0.058223713 -0.84358186 -0.25967574 0.52004606 -0.009237441 -0.61497 -0.13008712 -0.20226206
0.0990317 -0.27519226 -0.24966395 -0.07876483 -0.00929891 -0.022908416 0.2276364 0.22265874
-0.691962 -0.037892155 0.11591893 -0.4758824 -0.022595644 -0.47759834 -0.74101335 -0.5268978
0.32805255 -0.20799737 -0.01950601 -0.27649942 -0.07537477 0.26257446 -0.13513577 0.19473155
-0.13405089 0.3734166 -0.208012 -0.0026332822 -0.20923051 0.059566293 -0.37412515 0.16956308
0.27773312 0.031931166 -0.10694269 0.09645953 -0.1656611 0.17433932 -0.055107065 0.125306
0.29728064 -0.25045726 -0.17722584 0.150851 -0.057690058 0.24085924 -0.048802827 0.16385974
-0.21843499 0.00595798 -0.25939327 0.124536455 -0.12690738 -0.0067460975 -0.29160458 0.15658952
0.17279461 0.22926365 0.48295218 -0.14795429 0.017150525 -0.38741484 -0.031595588 -0.18544762
0.006075057 -0.18284453 -0.19976489 -0.33654705 0.4846069 0.16290103 0.18319528 0.4771706
-0.11153303 -0.007969151 0.15190175 -0.59781736 -0.0037583527 -0.14259134 -0.037647557 -0.21451898
0.343379 -0.04174198 -0.0086960895 -0.12894084 0.08741507 0.2557851 -0.2666217 0.24594653
0.0122505175 0.39149415 -0.24488342 0.12961353 -0.23258291 -0.09537239 -0.163406 0.088254616
0.22790676 -0.054270174 -0.31523365 0.08181788 0.1948538 0.12193049 -0.006640648 0.049522758
0.22615534 -0.321417 0.034605246 0.17693666 0.26442644 0.24856941 0.09390173 0.22321257
-0.049516626 0.3635483 -0.115992665 -0.5826319 0.22583745 -0.3238104 0.24240775 -0.37995777
0.10043346 0.006162443 0.4668309 -0.49491897 0.04961964 -0.40616685 0.110889144 -0.1548945
0.17425081 -0.1904059 -0.1856352 -0.26847765 0.06562928 0.76146835 -0.09116804 0.34935883
-0.49790147 0.1256542 0.20335792 0.44711664 0.13145034 -0.2533449 -0.030616771 -0.16794227
0.2117711 -0.5035269 0.30247363 -0.17451952 -0.0615668 0.15671653 0.006211033 0.27827814
-0.03438529 0.290532 -0.5814964 -0.2072461 -0.20690495 -0.01125285 -0.33317444 0.2131023
0.109338865 -0.59583837 -0.17311095 -0.0771829 0.22622633 0.0315152 0.16626184 0.14485289
0.333507 -0.36115494 -0.23898898 0.08003835 -0.4548795 0.21550518 0.044685077 0.17701009
-0.18669614 -0.15951154 0.4587953 -0.5958969 -0.725368 -0.18178445 0.7181558 0.18967348
-0.5112331 -0.16145255 -0.061509684 -0.21940006 0.011137364 -0.48659164 -0.18774967 -0.18500543
0.12752365 -0.1214445 -0.24200793 -0.10981924 -0.08861462 -0.093924895 0.24275585 -0.083384216
0.16866486 0.049367808 0.14912817 -0.42630643 -0.011365215 -0.30402032 -0.43367276 -0.34285867
0.30838022 -0.2578601 -0.0749338 -0.54450285 -0.12705639 0.24077176 0.028190413 0.25307804
-0.01971624 0.15002653 -0.16274022 0.3050405 -0.265053 0.034144588 -0.2932629 0.18563461
0.29591587 0.07817409 -0.16144286 0.12906049 0.12419835 0.11699394 -0.2240046 0.0012164158
0.33975896 0.8213467 -0.0035501732 -0.028483279 0.24889195 0.18754512 -0.09070874 0.14913654
0.0006804724 0.18594652 -0.2626561 -0.33586895 0.031159662 -0.3010394 -0.26180187 -0.41215646

fc3.bias f4 [4]
00000000: 0371 163f 492c cc3e 199f 043f 0350 003f
0.5876619 0.39877537 0.51805264 0.5012209
